(242498, 1, 8976)
(242498,)
(242498, 8976)
(193998, 8976)
(48500, 8976)
(193998,)
(48500,)
Model: "sequential"
_________________________________________________________________
 Layer (type)                Output Shape              Param #   
=================================================================
 dense (Dense)               (None, 1024)              9192448   
                                                                 
 dropout (Dropout)           (None, 1024)              0         
                                                                 
 dense_1 (Dense)             (None, 512)               524800    
                                                                 
 dropout_1 (Dropout)         (None, 512)               0         
                                                                 
 dense_2 (Dense)             (None, 256)               131328    
                                                                 
 dropout_2 (Dropout)         (None, 256)               0         
                                                                 
 dense_3 (Dense)             (None, 128)               32896     
                                                                 
 dropout_3 (Dropout)         (None, 128)               0         
                                                                 
 dense_4 (Dense)             (None, 64)                8256      
                                                                 
 dropout_4 (Dropout)         (None, 64)                0         
                                                                 
 dense_5 (Dense)             (None, 1)                 65        
                                                                 
=================================================================
Total params: 9,889,793
Trainable params: 9,889,793
Non-trainable params: 0
_________________________________________________________________
Epoch 1/200
   1/1516 [..............................] - ETA: 16:26 - loss: 32.9949 - mse: 1.7847 - mae: 1.0455
…
